Veri seti yükleniyor...
Found 4565 files belonging to 2 classes.
Found 978 files belonging to 2 classes.
Found 980 files belonging to 2 classes.
Class weights: edible=0.953, poisonous=1.052
Model: "MycoVision"
┌─────────────────────────────────┬────────────────────────┬───────────────┐
│ Layer (type)                    │ Output Shape           │       Param # │
├─────────────────────────────────┼────────────────────────┼───────────────┤
│ input_layer_1 (InputLayer)      │ (None, 224, 224, 3)    │             0 │
├─────────────────────────────────┼────────────────────────┼───────────────┤
│ augmentation (Sequential)       │ (None, 224, 224, 3)    │             0 │
├─────────────────────────────────┼────────────────────────┼───────────────┤
│ true_divide (TrueDivide)        │ (None, 224, 224, 3)    │             0 │
├─────────────────────────────────┼────────────────────────┼───────────────┤
│ subtract (Subtract)             │ (None, 224, 224, 3)    │             0 │
├─────────────────────────────────┼────────────────────────┼───────────────┤
│ mobilenetv2_1.00_224            │ (None, 7, 7, 1280)     │     2,257,984 │
│ (Functional)                    │                        │               │
├─────────────────────────────────┼────────────────────────┼───────────────┤
│ global_average_pooling2d        │ (None, 1280)           │             0 │
│ (GlobalAveragePooling2D)        │                        │               │
├─────────────────────────────────┼────────────────────────┼───────────────┤
│ batch_normalization             │ (None, 1280)           │         5,120 │
│ (BatchNormalization)            │                        │               │
├─────────────────────────────────┼────────────────────────┼───────────────┤
│ dropout (Dropout)               │ (None, 1280)           │             0 │
├─────────────────────────────────┼────────────────────────┼───────────────┤
│ dense (Dense)                   │ (None, 1)              │         1,281 │
└─────────────────────────────────┴────────────────────────┴───────────────┘
 Total params: 2,264,385 (8.64 MB)
 Trainable params: 3,841 (15.00 KB)
 Non-trainable params: 2,260,544 (8.62 MB)

── Aşama 1: Transfer Learning ──
Epoch 1/20

[1m  1/143[0m [37m━━━━━━━━━━━━━━━━━━━━[0m [1m15:51[0m 7s/step - accuracy: 0.4375 - loss: 1.0758 - precision: 0.3571 - recall: 0.3571
[1m  2/143[0m [37m━━━━━━━━━━━━━━━━━━━━[0m [1m2:14[0m 956ms/step - accuracy: 0.5000 - loss: 0.9744 - precision: 0.4366 - recall: 0.4544
…
